TD3/pytorch_models/NeuromorphicTD3_velodyne_critic.pth (torch, 36614 bytes, 10 tensors)

layer1_1.weights f4 [128, 26]
0.26319012 -0.090081714 0.20707715 -0.05419715 0.12779455 -0.10037773 -0.10384512 -0.066837706
0.07058744 -0.025255445 -0.05483997 -0.0903393 0.031106297 -0.066698626 0.057933893 -0.0888879
-0.0283802 0.031120477 -0.0056716795 -0.12892303 0.14161809 0.08061473 0.103268206 0.035767157
0.0053047943 0.12865813 -0.055193096 -0.01765105 0.110575154 -0.17733954 -0.011821113 -0.23753564
0.1032538 -0.0018930519 0.22732544 0.05768326 0.10780442 -0.0021623746 0.009317415 0.018767554
-0.015696138 -0.040929683 0.0323213 -0.04468147 0.07420461 0.031153515 -0.18156113 0.13413695
-0.0011219027 -0.048143473 0.061571546 0.06641316 -0.090801656 0.1256812 0.04602587 -0.116599694
0.14122288 0.117128335 -0.10743083 0.027853534 0.17230153 0.034218293 0.14500211 -0.052376773
-0.09846287 -0.09466227 0.16241865 0.11405555 0.26180252 0.10919143 0.08370127 0.1042608
0.0079568755 -0.11405452 0.12724255 -0.0746811 -0.07163003 0.043444287 0.27158973 -0.08069396
-0.08818587 -0.0010946417 -0.074553534 -0.08318419 0.07504329 0.15972035 -0.06529483 0.0050857887
-0.10897708 0.087690756 0.014793239 0.053078085 -0.06915455 -0.19874336 0.009972877 0.12987816
0.012777612 0.0051046843 0.20379725 -0.21201168 -0.1313754 -0.026349707 0.08285711 0.07344504
-0.068014175 -0.08211564 -0.11293574 -0.04936488 -0.032208767 -0.00060003035 -0.121209875 -0.07113003
0.05357318 -0.08305203 -0.09322863 -0.24665852 0.06707764 -0.02835894 0.108105294 -0.11832374
0.15406074 0.057615723 0.008579361 0.072682224 0.03201567 -0.12974484 0.09861847 0.12021553
-0.021814322 0.2081965 0.09060722 -0.056914944 -0.018793056 -0.10716555 -0.005826105 -0.01989021
-0.14390215 -0.03717296 -0.049459662 0.042557936 -0.07832491 -0.04685451 -0.071460694 0.13835678
-0.2335292 0.09366798 -0.12821893 -0.07463254 0.08076242 0.17353953 0.02401765 0.011054926
0.12383684 0.07226821 0.13225178 -0.18805154 -0.05914268 0.11321812 0.093182705 -0.16584
0.058662277 0.08634614 0.050328176 0.1167232 0.065111004 0.12479847 -0.014517048 -0.13230531
0.046562657 -0.086473234 -0.027311979 0.039290562 -0.04159993 0.057819735 -0.15388207 0.024832876
0.02410933 0.072194554 0.111505546 0.017739616 0.09389525 -0.04856849 -0.06931036 -0.32829854
0.10836931 0.026774708 0.18002433 0.13066658 0.060845412 0.10396557 0.18671995 0.0073750266
-0.14194666 -0.16866057 0.04635712 -0.008396178 -0.015985003 -0.032983456 0.11412539 0.04229165
0.02071044 0.077334926 0.039748695 0.054650795 -0.079850264 0.041618913 0.044109806 -0.028054848
-0.015737196 -0.05853611 0.117508724 -0.02534808 0.031056264 0.09855731 0.08760955 -0.05466613
-0.09048565 -0.11403964 -0.18073481 0.16431922 -0.032417174 -0.2170496 0.0356342 0.12947741
0.23122326 0.025828743 0.02822848 -0.14107811 0.14959888 0.114248864 -0.058049977 -0.084577374
-0.01814416 0.045744386 0.0133452285 0.11482717 -0.013116716 0.055971205 -0.20597509 -0.08786063
0.07510262 -0.037627053 -0.14141014 -0.054312892 -0.07823393 0.11516341 0.17163862 -0.045632888
0.034073237 0.021664253 0.06867938 0.14252642 -0.085005954 0.10322388 -0.0152945295 0.033425417
00000000: dbc0 863e c37c b8bd 080c 543e d5fd 5dbd
00000010: 93dc 023e d792 cdbd c0ac d4bd 35e2 88bd
00000020: 2690 903d 82e4 cebc e09f 60bd d003 b9bd
00000030: a2d2 fe3c 4a99 88bd 174c 6d3d dc0a b6bd
00000040: 987d e8bc 5ff0 fe3c 7fd9 b9bb 6604 04be
00000050: 5504 113e 5619 a53d 487e d33d 9580 123d
00000060: d7d3 ad3b f5be 033e 2812 62bd ef98 90bc
00000070: 3a75 e23d 7f98 35be 57ad 41bc 8b3c 73be
00000080: ba76 d33d 4820 f8ba 00c8 683e 4845 6c3d
00000090: 90c8 dc3d a0b6 0dbb 12a8 183c 6abe 993c
000000a0: 3095 80bc e2a5 27bd 5763 043d eb03 37bd
000000b0: 96f8 973d a835 ff3c 29eb 39be 325b 093e
000000c0: cf0c 93ba 1732 45bd 7232 7c3d 9f03 883d
000000d0: 38f6 b9bd 93b2 003e 9f85 3c3d d2cb eebd
000000e0: bb9c 103e fbe0 ef3d b204 dcbd 182d e43c
000000f0: d06f 303e 7b28 0c3d 6f7b 143e 0789 56bd
00000100: e7a6 c9bd 4bde c1bd 1351 263e f595 e93d
00000110: fb0a 863e c29f df3d 926b ab3d b086 d53d
00000120: 8e5d 023c 6b95 e9bd df4b 023e 68f2 98bd
00000130: c4b2 92bd a3f2 313d cf0d 8b3e e042 a5bd
00000140: cb9a b4bd 157a 8fba 86af 98bd 795c aabd
00000150: 4cb0 993d bb8d 233e 4cb9 85bd b0a6 a63b
00000160: 602f dfbd 3697 b33d 575f 723c 6868 593d
00000170: e7a0 8dbd 6183 4bbe 4765 233c c8fe 043e
00000180: 3059 513c 3245 a73b 3ab0 503e 9719 59be
00000190: 4687 06be 57db d7bc fdb0 a93d 5a6a 963d
000001a0: 044b 8bbd 3f2c a8bd da4a e7bd d432 4abd
000001b0: 57ed 03bd 5b4b 1dba e23c f8bd 9fac 91bd
000001c0: 8d6f 5b3d 2f17 aabd a7ee bebd 0d94 7cbe
000001d0: 0060 893d 0251 e8bc 4f66 dd3d b853 f2bd
000001e0: 19c2 1d3e 77fe 6b3d 7390 0c3c 6bda 943d
000001f0: dd22 033d d5db 04be 7bf8 c93d 8f33 f63d
00000200: f3b3 b2bc 7731 553e 4790 b93d a51f 69bd
00000210: e5f3 99bc 9d79 dbbd e9e8 bebb cbf0 a2bc
00000220: 165b 13be ac42 18bd 3796 4abd 3b51 2e3d
00000230: cf68 a0bd 84ea 3fbd fc59 92bd 66ad 0d3e
00000240: 4722 6fbe ffd4 bf3d d34b 03be f2d8 98bd
00000250: c566 a53d 59b4 313e aac0 c43c b81f 353c
00000260: 2b9e fd3d 5b01 943d 036d 073e 9590 40be
00000270: 983f 72bd e7de e73d 93d6 be3d f6d1 29be
00000280: db47 703d 3fd6 b03d eb24 4e3d 930c ef3d
00000290: eb58 853d 5796 ff3d ead8 6dbc 0b7b 07be
000002a0: 7cb8 3e3d e118 b1bd 5fbd dfbc 24ef 203d
000002b0: b064 2abd 63d4 6c3d 4393 1dbe 516e cb3c
000002c0: ee80 c53c bdda 933d 055d e43d ac52 913c
000002d0: 274c c03d c1ef 46bd 97f2 8dbd bf16 a8be
000002e0: bbf0 dd3d a256 db3c 4c58 383e 76cd 053e
000002f0: 0a39 793d e7eb d43d 8433 3f3e 35aa f13b
00000300: 775a 11be 5bb5 2cbe f7e0 3d3d 1f90 09bc
00000310: fbf2 82bc a919 07bd 93ba e93d 023a 2d3d
00000320: f1a8 a93c c661 9e3d 87cf 223d 83d9 5f3d
00000330: 8988 a3bd 9878 2a3d 7cac 343d 48d3 e5bc
00000340: 4beb 80bc 8fc3 6fbd 6aa8 f03d c7a6 cfbc
00000350: b569 fe3c 6ad8 c93d a36c b33d 98e9 5fbd
00000360: 8a50 b9bd 9d8d e9bd 8c12 39be 4c43 283e
00000370: dfc7 04bd 4042 5ebe 2bf5 113d ba95 043e
00000380: cac5 6c3e cd96 d33c 6a3f e73c c876 10be
00000390: 7330 193e 4ffb e93d d0c5 6dbd e736 adbd
000003a0: 10a3 94bc 775e 3b3d f2a5 5a3c 822a eb3d
000003b0: 7fe7 56bc 1042 653d 22eb 52be 46f0 b3bd
000003c0: 67cf 993d d31e 1abd d2cd 10be 3277 5ebd
000003d0: 1c39 a0bd cbda eb3d 09c2 2f3e 8de9 3abd
000003e0: 6190 0b3d 3b79 b13c c6a7 8c3d 72f2 113e
000003f0: 9a17 aebd 0b67 d33d e895 7abc 17e9 083d

layer1_1.bias f4 [128]
0.0 0.0 0.0 0.0 0.0 0.0 0.0 0.0
0.0 0.0 0.0 0.0 0.0 0.0 0.0 0.0
0.0 0.0 0.0 0.0 0.0 0.0 0.0 0.0
0.0 0.0 0.0 0.0 0.0 0.0 0.0 0.0
0.0 0.0 0.0 0.0 0.0 0.0 0.0 0.0
0.0 0.0 0.0 0.0 0.0 0.0 0.0 0.0
0.0 0.0 0.0 0.0 0.0 0.0 0.0 0.0
0.0 0.0 0.0 0.0 0.0 0.0 0.0 0.0
0.0 0.0 0.0 0.0 0.0 0.0 0.0 0.0
0.0 0.0 0.0 0.0 0.0 0.0 0.0 0.0
0.0 0.0 0.0 0.0 0.0 0.0 0.0 0.0
0.0 0.0 0.0 0.0 0.0 0.0 0.0 0.0
0.0 0.0 0.0 0.0 0.0 0.0 0.0 0.0
0.0 0.0 0.0 0.0 0.0 0.0 0.0 0.0
0.0 0.0 0.0 0.0 0.0 0.0 0.0 0.0
0.0 0.0 0.0 0.0 0.0 0.0 0.0 0.0
00000000: 0000 0000 0000 0000 0000 0000 0000 0000
00000010: 0000 0000 0000 0000 0000 0000 0000 0000
00000020: 0000 0000 0000 0000 0000 0000 0000 0000
00000030: 0000 0000 0000 0000 0000 0000 0000 0000
00000040: 0000 0000 0000 0000 0000 0000 0000 0000
00000050: 0000 0000 0000 0000 0000 0000 0000 0000
00000060: 0000 0000 0000 0000 0000 0000 0000 0000
00000070: 0000 0000 0000 0000 0000 0000 0000 0000
00000080: 0000 0000 0000 0000 0000 0000 0000 0000
00000090: 0000 0000 0000 0000 0000 0000 0000 0000
000000a0: 0000 0000 0000 0000 0000 0000 0000 0000
000000b0: 0000 0000 0000 0000 0000 0000 0000 0000
000000c0: 0000 0000 0000 0000 0000 0000 0000 0000
000000d0: 0000 0000 0000 0000 0000 0000 0000 0000
000000e0: 0000 0000 0000 0000 0000 0000 0000 0000
000000f0: 0000 0000 0000 0000 0000 0000 0000 0000
00000100: 0000 0000 0000 0000 0000 0000 0000 0000
00000110: 0000 0000 0000 0000 0000 0000 0000 0000
00000120: 0000 0000 0000 0000 0000 0000 0000 0000
00000130: 0000 0000 0000 0000 0000 0000 0000 0000
00000140: 0000 0000 0000 0000 0000 0000 0000 0000
00000150: 0000 0000 0000 0000 0000 0000 0000 0000
00000160: 0000 0000 0000 0000 0000 0000 0000 0000
00000170: 0000 0000 0000 0000 0000 0000 0000 0000
00000180: 0000 0000 0000 0000 0000 0000 0000 0000
00000190: 0000 0000 0000 0000 0000 0000 0000 0000
000001a0: 0000 0000 0000 0000 0000 0000 0000 0000
000001b0: 0000 0000 0000 0000 0000 0000 0000 0000
000001c0: 0000 0000 0000 0000 0000 0000 0000 0000
000001d0: 0000 0000 0000 0000 0000 0000 0000 0000
000001e0: 0000 0000 0000 0000 0000 0000 0000 0000
000001f0: 0000 0000 0000 0000 0000 0000 0000 0000

layer1_1.spike_threshold f4 [128]
0.5 0.5 0.5 0.5 0.5 0.5 0.5 0.5
0.5 0.5 0.5 0.5 0.5 0.5 0.5 0.5
0.5 0.5 0.5 0.5 0.5 0.5 0.5 0.5
0.5 0.5 0.5 0.5 0.5 0.5 0.5 0.5
0.5 0.5 0.5 0.5 0.5 0.5 0.5 0.5
0.5 0.5 0.5 0.5 0.5 0.5 0.5 0.5
0.5 0.5 0.5 0.5 0.5 0.5 0.5 0.5
0.5 0.5 0.5 0.5 0.5 0.5 0.5 0.5
0.5 0.5 0.5 0.5 0.5 0.5 0.5 0.5
0.5 0.5 0.5 0.5 0.5 0.5 0.5 0.5
0.5 0.5 0.5 0.5 0.5 0.5 0.5 0.5
0.5 0.5 0.5 0.5 0.5 0.5 0.5 0.5
0.5 0.5 0.5 0.5 0.5 0.5 0.5 0.5
0.5 0.5 0.5 0.5 0.5 0.5 0.5 0.5
0.5 0.5 0.5 0.5 0.5 0.5 0.5 0.5
0.5 0.5 0.5 0.5 0.5 0.5 0.5 0.5
00000000: 0000 003f 0000 003f 0000 003f 0000 003f
00000010: 0000 003f 0000 003f 0000 003f 0000 003f
00000020: 0000 003f 0000 003f 0000 003f 0000 003f
00000030: 0000 003f 0000 003f 0000 003f 0000 003f
00000040: 0000 003f 0000 003f 0000 003f 0000 003f
00000050: 0000 003f 0000 003f 0000 003f 0000 003f
00000060: 0000 003f 0000 003f 0000 003f 0000 003f
00000070: 0000 003f 0000 003f 0000 003f 0000 003f
00000080: 0000 003f 0000 003f 0000 003f 0000 003f
00000090: 0000 003f 0000 003f 0000 003f 0000 003f
000000a0: 0000 003f 0000 003f 0000 003f 0000 003f
000000b0: 0000 003f 0000 003f 0000 003f 0000 003f
000000c0: 0000 003f 0000 003f 0000 003f 0000 003f
000000d0: 0000 003f 0000 003f 0000 003f 0000 003f
000000e0: 0000 003f 0000 003f 0000 003f 0000 003f
000000f0: 0000 003f 0000 003f 0000 003f 0000 003f
00000100: 0000 003f 0000 003f 0000 003f 0000 003f
00000110: 0000 003f 0000 003f 0000 003f 0000 003f
00000120: 0000 003f 0000 003f 0000 003f 0000 003f
00000130: 0000 003f 0000 003f 0000 003f 0000 003f
00000140: 0000 003f 0000 003f 0000 003f 0000 003f
00000150: 0000 003f 0000 003f 0000 003f 0000 003f
00000160: 0000 003f 0000 003f 0000 003f 0000 003f
00000170: 0000 003f 0000 003f 0000 003f 0000 003f
00000180: 0000 003f 0000 003f 0000 003f 0000 003f
00000190: 0000 003f 0000 003f 0000 003f 0000 003f
000001a0: 0000 003f 0000 003f 0000 003f 0000 003f
000001b0: 0000 003f 0000 003f 0000 003f 0000 003f
000001c0: 0000 003f 0000 003f 0000 003f 0000 003f
000001d0: 0000 003f 0000 003f 0000 003f 0000 003f
000001e0: 0000 003f 0000 003f 0000 003f 0000 003f
000001f0: 0000 003f 0000 003f 0000 003f 0000 003f

layer1_1.membrane_decay f4 [128]
0.9 0.9 0.9 0.9 0.9 0.9 0.9 0.9
0.9 0.9 0.9 0.9 0.9 0.9 0.9 0.9
0.9 0.9 0.9 0.9 0.9 0.9 0.9 0.9
0.9 0.9 0.9 0.9 0.9 0.9 0.9 0.9
0.9 0.9 0.9 0.9 0.9 0.9 0.9 0.9
0.9 0.9 0.9 0.9 0.9 0.9 0.9 0.9
0.9 0.9 0.9 0.9 0.9 0.9 0.9 0.9
0.9 0.9 0.9 0.9 0.9 0.9 0.9 0.9
0.9 0.9 0.9 0.9 0.9 0.9 0.9 0.9
0.9 0.9 0.9 0.9 0.9 0.9 0.9 0.9
0.9 0.9 0.9 0.9 0.9 0.9 0.9 0.9
0.9 0.9 0.9 0.9 0.9 0.9 0.9 0.9
0.9 0.9 0.9 0.9 0.9 0.9 0.9 0.9
0.9 0.9 0.9 0.9 0.9 0.9 0.9 0.9
0.9 0.9 0.9 0.9 0.9 0.9 0.9 0.9
0.9 0.9 0.9 0.9 0.9 0.9 0.9 0.9
00000000: 6666 663f 6666 663f 6666 663f 6666 663f
00000010: 6666 663f 6666 663f 6666 663f 6666 663f
00000020: 6666 663f 6666 663f 6666 663f 6666 663f
00000030: 6666 663f 6666 663f 6666 663f 6666 663f
00000040: 6666 663f 6666 663f 6666 663f 6666 663f
00000050: 6666 663f 6666 663f 6666 663f 6666 663f
00000060: 6666 663f 6666 663f 6666 663f 6666 663f
00000070: 6666 663f 6666 663f 6666 663f 6666 663f
00000080: 6666 663f 6666 663f 6666 663f 6666 663f
00000090: 6666 663f 6666 663f 6666 663f 6666 663f
000000a0: 6666 663f 6666 663f 6666 663f 6666 663f
000000b0: 6666 663f 6666 663f 6666 663f 6666 663f
000000c0: 6666 663f 6666 663f 6666 663f 6666 663f
000000d0: 6666 663f 6666 663f 6666 663f 6666 663f
000000e0: 6666 663f 6666 663f 6666 663f 6666 663f
000000f0: 6666 663f 6666 663f 6666 663f 6666 663f
00000100: 6666 663f 6666 663f 6666 663f 6666 663f
00000110: 6666 663f 6666 663f 6666 663f 6666 663f
00000120: 6666 663f 6666 663f 6666 663f 6666 663f
00000130: 6666 663f 6666 663f 6666 663f 6666 663f
00000140: 6666 663f 6666 663f 6666 663f 6666 663f
00000150: 6666 663f 6666 663f 6666 663f 6666 663f
00000160: 6666 663f 6666 663f 6666 663f 6666 663f
00000170: 6666 663f 6666 663f 6666 663f 6666 663f
00000180: 6666 663f 6666 663f 6666 663f 6666 663f
00000190: 6666 663f 6666 663f 6666 663f 6666 663f
000001a0: 6666 663f 6666 663f 6666 663f 6666 663f
000001b0: 6666 663f 6666 663f 6666 663f 6666 663f
000001c0: 6666 663f 6666 663f 6666 663f 6666 663f
000001d0: 6666 663f 6666 663f 6666 663f 6666 663f
000001e0: 6666 663f 6666 663f 6666 663f 6666 663f
000001f0: 6666 663f 6666 663f 6666 663f 6666 663f

layer1_2.weights f4 [1, 128]
-0.012933386 0.0057704975 -0.05167773 0.060522553 0.0910431 -0.0013206688 -0.1568825 0.24906854
0.0781823 -0.112004794 -0.010328351 -0.067770764 0.03867107 0.09179386 0.11423005 -0.031143978
-0.19876644 0.06612577 -0.023793375 0.01458886 -0.11372586 -0.13601226 0.015206105 0.14271776
0.07555384 -0.06855718 0.06076625 0.07451121 -0.059616275 -0.02223738 -0.07378263 -0.010672499
0.057379853 -0.12976359 0.1178666 -0.18614863 -0.09781783 -0.10041608 -0.101007484 0.06932818
0.061661568 0.22401802 -0.11250766 -0.13166027 -0.10798892 -0.031508874 -0.0813181 0.09792443
-0.05812588 -0.08747451 0.07200659 0.0533049 0.011654728 0.0075779217 0.08423763 -0.09641082
0.083865784 0.047904857 0.05289432 -0.034995537 0.10836951 -0.11547015 0.03328721 0.013946945
0.00017748462 -0.016562019 0.12030704 0.052069604 -0.14796412 -0.14558089 0.09297695 0.11346004
0.10998654 -0.035773795 0.021346698 -0.0006411754 0.02646104 -0.11102813 -0.048401576 0.06792369
-0.070624694 0.090421 0.0046536266 0.1350673 -0.04816034 0.018806595 -0.042575963 0.008468242
-0.02211712 -0.09818842 -0.0007090336 0.027952394 -0.09955829 0.016612293 -0.08720989 -0.052987274
0.02096603 0.052875508 0.0056038992 -0.10981838 0.11661965 0.04008468 0.108620815 -0.04697213
-0.006289585 0.014135212 0.03208538 0.0032328689 0.09691131 -0.035396308 0.028350547 0.07538169
0.082891785 -0.05216496 0.076727875 -0.1755278 -0.013089194 -0.01440139 0.022009138 0.020059565
0.0021207996 -0.104686774 -0.014180161 0.09145262 0.035645656 -0.071995445 -0.07642908 0.0066951714
00000000: 8de6 53bc 7116 bd3b 07ac 53bd 7fe6 773d
00000010: ce74 ba3d 4b1a adba cea5 20be d30b 7f3e
00000020: 0b1e a03d c562 e5bd 3e38 29bc 66cb 8abd
00000030: 8e65 1e3d 6bfe bb3d 72f1 e93d a821 ffbc
00000040: 6e89 4bbe f36c 873d 53ea c2bc 1d06 6f3c
00000050: 1be9 e8bd cc46 0bbe 0723 793c 9b24 123e
00000060: f9bb 9a3d b567 8cbd 08e6 783d 5599 983d
00000070: 3230 74bd 2a2b b6bc 591b 97bd b5db 2ebc
00000080: 2307 6b3d bfe0 04be 0b64 f13d bf9d 3ebe
00000090: b754 c8bd f2a6 cdbd 03dd cebd effb 8d3d
000000a0: d790 7c3d fb64 653e 6b6a e6bd f3d1 06be
000000b0: 4b29 ddbd 730f 01bd 1b8a a6bd 9b8c c83d
000000c0: 6715 6ebd d625 b3bd 3178 933d 3d56 5a3d
000000d0: 79f3 3e3c 3750 f83b c784 ac3d 0973 c5bd
000000e0: d3c1 ab3d e237 443d b7a7 583d 7b57 0fbd
000000f0: d5f0 dd3d 9d7b ecbd 2b58 083d ba81 643c
00000100: 2a1b 3a39 12ad 87bc 8a63 f63d f046 553d
00000110: e883 17be 2813 15be b36a be3d bd5d e83d
00000120: a040 e13d 8b87 12bd 45df ae3c 8d14 28ba
00000130: d3c4 d83c b762 e3bd bb40 46bd 931b 8b3d
00000140: aea3 90bd a52e b93d 737d 983b 154f 0a3e
00000150: c743 45bd 4a10 9a3c 2264 2ebd 62be 0a3c
00000160: f62e b5bc 0317 c9bd 70de 39ba 6bfc e43c
00000170: 37e5 cbbd 8116 883c 199b b2bd 2f09 59bd
00000180: f4c0 ab3c fd93 583d eaa0 b73b 75e8 e0bd
00000190: 48d6 ee3d d52f 243d 9774 de3d d965 40bd
000001a0: dd18 cebb 6097 673c f66b 033d 8ade 533b
000001b0: 7079 c63d b8fb 10bd 683f e83c b761 9a3d
000001c0: 2bc3 a93d edaa 55bd 8123 9d3d 8fbd 33be
000001d0: 0f74 56bc cff3 6bbc 824c b43c f553 a43c
000001e0: 1dfd 0a3b 0566 d6bd e853 68bc 834b bb3d
000001f0: 2e01 123d 5972 93bd d986 9cbd 2b63 db3b

layer2_1.weights f4 [128, 26]
0.07780275 0.053912956 0.08890084 0.025878236 -0.116557 0.04859109 -0.037325352 -0.035704993
-0.0018260494 0.21971326 -0.13318731 0.007738292 0.025590157 -0.015056453 0.031785205 0.06725415
-0.08069854 -0.036296453 0.10754637 0.051209003 0.0601858 -0.0077116014 -0.20052119 -0.044786904
-0.0053598485 0.040829454 -0.10017522 0.017031835 0.019879257 -0.23324943 -0.030248398 0.058694165
0.049761977 0.15629666 0.057401415 -0.16303366 0.16371895 -0.00016897704 0.028820956 -0.13206986
-0.16044697 0.0032650442 0.013735065 0.06499242 0.0666556 0.10591364 -0.023774382 -0.08550568
-0.17109407 0.13381681 0.089279585 0.08365455 0.09465633 0.048470445 -0.069565535 0.22658458
-0.052792933 -0.036426097 0.28641465 0.13247041 -0.108991265 0.19952415 -0.048317697 -0.037828922
-0.08601596 0.014695103 -0.06345563 0.032178253 -0.054032262 -0.059799552 -0.10205419 -0.11012913
-0.102977686 -0.05397877 -0.018047618 -0.063551076 0.024265068 -0.16018777 -0.08112083 -0.0029882973
0.04205209 -0.1949168 -0.083510295 0.03677934 -0.017692735 -0.04513919 -0.018906564 -0.12510148
0.19519405 0.20767204 0.19891122 -0.08937128 0.089033976 0.21558261 -0.07755419 0.02194762
0.0984486 0.004746999 0.016595302 0.12274488 -0.00586251 0.017255295 0.05577916 0.0703961
0.07873314 0.051702864 0.07933497 0.11295503 0.16164647 -0.023497215 0.014334534 -0.1255915
-0.011709976 0.09396502 0.082161196 -0.12365096 0.00456094 -0.058330324 0.006068885 0.088363096
-0.03524377 -0.016052611 -0.036685098 0.1367354 0.044432607 -0.04883892 -0.01076823 -0.02999543
-0.12771185 -0.0123041505 0.024314046 0.049852926 -0.020284234 -0.02972794 -0.03629746 0.021959634
0.1435773 -0.11556595 -0.035038266 -0.04374313 -0.17961335 -0.02572214 0.039433777 0.05940164
-0.047085527 0.07170326 -0.22825705 -0.06402665 -0.080695055 -0.10626898 0.00604089 -0.045464456
-0.058424145 0.09015078 0.04387764 0.060612954 -0.06751209 0.045114245 0.07996785 0.0633699
0.086256795 0.15697968 -0.06898071 0.032901686 0.08304881 -0.07218047 -0.10858359 0.044265833
0.044654056 0.017629607 0.11952888 -0.085879505 -0.19388616 -0.10252934 -0.13365327 0.07387876
0.034909006 0.06489258 0.013190672 -0.022879377 0.018093172 -0.12772845 0.09726666 0.06253488
-0.08645796 0.110626176 0.033785693 0.020010887 -0.047378357 -0.07051286 0.04487144 -0.08185729
0.06828787 -0.05539892 0.10106268 0.116664365 -0.16357952 -0.15176468 -0.010786709 0.14481367
-0.0064547667 0.2027375 -0.112978496 -0.079585485 0.1494586 -0.0006684357 0.0046506464 -0.054983534
0.010230521 -0.13242786 -0.030651828 0.05693105 -0.047760244 -0.119799376 0.05300786 -0.042714745
-0.15689257 0.14481401 -0.011882822 0.061742034 0.0181016 -0.06671097 -0.066796385 -0.13742004
0.096987836 0.16709214 -0.009694537 0.113877155 -0.16691442 -0.034869574 -0.07382965 -0.005267391
-0.103141844 0.024186905 -0.21037069 0.05354928 0.22819157 0.055921365 0.12916134 0.117897645
-0.04338509 0.030379245 0.10047225 0.027027596 0.065635726 0.038072117 0.027135093 -0.039991524
0.007465971 -0.019068228 0.007450171 -0.21694298 -0.0693017 -0.04571094 0.09002082 -0.015394226
00000000: 0c57 9f3d d5d3 5c3d a511 b63d 98fe d33c
00000010: 70b5 eebd 7307 473d 78e2 18bd 663f 12bd
00000020: 0d58 efba 83fc 603e 4162 08be 8091 fd3b
00000030: 73a2 d13c 57af 76bc 3431 023d 8bbc 893d
00000040: 4745 a5bd 97ab 14bd 4541 dc3d 88c0 513d
00000050: 6385 763d 9ab1 fcbb 6d55 4dbe 7972 37bd
00000060: aba1 afbb c93c 273d aa28 cdbd 5986 8b3c
00000070: d3d9 a23c f0d8 6ebe 7dcb f7bc 4b69 703d
00000080: 37d3 4b3d 3b0c 203e bf1d 6b3d 4cf2 26be
00000090: f1a5 273e 6e2f 31b9 ed19 ec3c 523d 07be
000000a0: 364c 24be 5afa 553b 0a09 613c bf1a 853d
000000b0: bb82 883d 40e9 d83d 7ec2 c2bc 9a1d afbd
000000c0: 4933 2fbe 4607 093e 37d8 b63d 1453 ab3d
000000d0: 2edb c13d f288 463d 6078 8ebd ca05 683e
000000e0: 673d 58bd 8833 15bd f1a4 923e 53a6 073e
000000f0: d036 dfbd 0f50 4c3e c7e8 45bd 80f2 1abd
00000100: 2329 b0bd bbc3 703c 06f5 81bd 58cd 033d
00000110: ef50 5dbd 60f0 74bd ca01 d1bd 628b e1bd
00000120: f7e5 d2bd d818 5dbd 99d8 93bc 1127 82bd
00000130: 89c7 c63c 4308 24be ad22 a6bd 4fd7 43bb
00000140: d03e 2c3d 4598 47be 7207 abbd efa5 163d
00000150: 5bf0 90bc dfe3 38bd f0e1 9abc 9a1a 00be
00000160: f3e0 473e fba7 543e 62af 4b3e 4a08 b7bd
00000170: 7257 b63d b0c1 5c3e bbd4 9ebd 7fcb b33c
00000180: 6b9f c93d b78c 9b3b dff2 873c ab61 fb3d
00000190: 4c1a c0bb fa5a 8d3c b078 643d d52b 903d
000001a0: d73e a13d 62c6 533d 5f7a a23d f754 e73d
000001b0: a786 253e 3b7d c0bc 65db 6a3c 0f9b 00be
000001c0: 33db 3fbc bb70 c03d 2144 a83d b73c fdbd
000001d0: f073 953b c7eb 6ebd 7fdd c63b b6f7 b43d
000001e0: c55b 10bd c480 83bc 1d43 16bd 5d04 0c3e
000001f0: f7fe 353d 520b 48bd 3b6d 30bc fab8 f5bc
00000200: e5c6 02be 5997 49bc 402e c73c 9532 4c3d
00000210: 1f2b a6bc 0288 f3bc a5ac 14bd b1e4 b33c
00000220: ed05 133e d7ad ecbd 4984 0fbd ff2b 33bd
00000230: 90ec 37be 3db7 d2bc 5085 213d 224f 733d
00000240: c1dc 40bd 29d9 923d 37bc 69be 6720 83bd
00000250: 7343 a5bd 8da3 d9bd a8f2 c53b f038 3abd
00000260: 284e 6fbd f9a0 b83d 0ab9 333d 4a45 783d
00000270: c743 8abd b7c9 383d 2fc6 a33d 14c8 813d
00000280: 67a7 b03d 48bf 203e c245 8dbd ebc3 063d
00000290: 7f15 aa3d 5bd3 93bd 1361 debd 1750 353d
000002a0: 2ce7 363d f76b 903c 8fcb f43d 98e1 afbd
000002b0: 188a 46be e7fa d1bd 67dc 08be bf4d 973d
000002c0: bffc 0e3d 67e6 843d b01d 583c 886d bbbc
000002d0: 2238 943c 3fcb 02be be33 c73d 4a12 803d
000002e0: df10 b1bd fa8f e23d de62 0a3d dfed a33c
000002f0: cf0f 42bd 0c69 90bd 1dcb 373d cba4 a7bd
00000300: 83da 8b3d fae9 62bd f3f9 ce3d baed ee3d
00000310: 6481 27be 3368 1bbe bdba 30bc 094a 143e
00000320: 8282 d3bb 6b9a 4f3e 4561 e7bd b7fd a2bd
00000330: ad0b 193e f639 2fba 7364 983b 6a36 61bd
00000340: ea9d 273c 2b9b 07be 8b19 fbbc 8830 693d
00000350: 3fa0 43bd 6059 f5bd c51e 593d a8f5 2ebd
00000360: 72a8 20be 204a 143e 2bb0 42bc 37e5 7c3d
00000370: cf49 943c c39f 88bd 8bcc 88bd d7b7 0cbe
00000380: 8fa1 c63d 341a 2b3e d6d5 1ebc 6d38 e93d
00000390: 9deb 2abe 66d3 0ebd 0034 97bd 149a acbb
000003a0: 083c d3bd 9e23 c63c 6a6b 57be 7d56 5b3d
000003b0: 0dab 693e cd0d 653d df42 043e 5274 f13d
000003c0: 90b4 31bd e5dd f83c 65c4 cd3d fa68 dd3c
000003d0: 066c 863d 82f1 1b3d 6a4a de3c 27ce 23bd
000003e0: 1ba5 f43b f934 9cbc 9020 f43b 4d26 5ebe
000003f0: 0dee 8dbd 653b 3bbd d65c b83d 1038 7cbc

layer2_1.bias f4 [128]
0.0 0.0 0.0 0.0 0.0 0.0 0.0 0.0
0.0 0.0 0.0 0.0 0.0 0.0 0.0 0.0
0.0 0.0 0.0 0.0 0.0 0.0 0.0 0.0
0.0 0.0 0.0 0.0 0.0 0.0 0.0 0.0
0.0 0.0 0.0 0.0 0.0 0.0 0.0 0.0
0.0 0.0 0.0 0.0 0.0 0.0 0.0 0.0
0.0 0.0 0.0 0.0 0.0 0.0 0.0 0.0
0.0 0.0 0.0 0.0 0.0 0.0 0.0 0.0
0.0 0.0 0.0 0.0 0.0 0.0 0.0 0.0
0.0 0.0 0.0 0.0 0.0 0.0 0.0 0.0
0.0 0.0 0.0 0.0 0.0 0.0 0.0 0.0
0.0 0.0 0.0 0.0 0.0 0.0 0.0 0.0
0.0 0.0 0.0 0.0 0.0 0.0 0.0 0.0
0.0 0.0 0.0 0.0 0.0 0.0 0.0 0.0
0.0 0.0 0.0 0.0 0.0 0.0 0.0 0.0
0.0 0.0 0.0 0.0 0.0 0.0 0.0 0.0
00000000: 0000 0000 0000 0000 0000 0000 0000 0000
00000010: 0000 0000 0000 0000 0000 0000 0000 0000
00000020: 0000 0000 0000 0000 0000 0000 0000 0000
00000030: 0000 0000 0000 0000 0000 0000 0000 0000
00000040: 0000 0000 0000 0000 0000 0000 0000 0000
00000050: 0000 0000 0000 0000 0000 0000 0000 0000
00000060: 0000 0000 0000 0000 0000 0000 0000 0000
00000070: 0000 0000 0000 0000 0000 0000 0000 0000
00000080: 0000 0000 0000 0000 0000 0000 0000 0000
00000090: 0000 0000 0000 0000 0000 0000 0000 0000
000000a0: 0000 0000 0000 0000 0000 0000 0000 0000
000000b0: 0000 0000 0000 0000 0000 0000 0000 0000
000000c0: 0000 0000 0000 0000 0000 0000 0000 0000
000000d0: 0000 0000 0000 0000 0000 0000 0000 0000
000000e0: 0000 0000 0000 0000 0000 0000 0000 0000
000000f0: 0000 0000 0000 0000 0000 0000 0000 0000
00000100: 0000 0000 0000 0000 0000 0000 0000 0000
00000110: 0000 0000 0000 0000 0000 0000 0000 0000
00000120: 0000 0000 0000 0000 0000 0000 0000 0000
00000130: 0000 0000 0000 0000 0000 0000 0000 0000
00000140: 0000 0000 0000 0000 0000 0000 0000 0000
00000150: 0000 0000 0000 0000 0000 0000 0000 0000
00000160: 0000 0000 0000 0000 0000 0000 0000 0000
00000170: 0000 0000 0000 0000 0000 0000 0000 0000
00000180: 0000 0000 0000 0000 0000 0000 0000 0000
00000190: 0000 0000 0000 0000 0000 0000 0000 0000
000001a0: 0000 0000 0000 0000 0000 0000 0000 0000
000001b0: 0000 0000 0000 0000 0000 0000 0000 0000
000001c0: 0000 0000 0000 0000 0000 0000 0000 0000
000001d0: 0000 0000 0000 0000 0000 0000 0000 0000
000001e0: 0000 0000 0000 0000 0000 0000 0000 0000
000001f0: 0000 0000 0000 0000 0000 0000 0000 0000

layer2_1.spike_threshold f4 [128]
0.5 0.5 0.5 0.5 0.5 0.5 0.5 0.5
0.5 0.5 0.5 0.5 0.5 0.5 0.5 0.5
0.5 0.5 0.5 0.5 0.5 0.5 0.5 0.5
0.5 0.5 0.5 0.5 0.5 0.5 0.5 0.5
0.5 0.5 0.5 0.5 0.5 0.5 0.5 0.5
0.5 0.5 0.5 0.5 0.5 0.5 0.5 0.5
0.5 0.5 0.5 0.5 0.5 0.5 0.5 0.5
0.5 0.5 0.5 0.5 0.5 0.5 0.5 0.5
0.5 0.5 0.5 0.5 0.5 0.5 0.5 0.5
0.5 0.5 0.5 0.5 0.5 0.5 0.5 0.5
0.5 0.5 0.5 0.5 0.5 0.5 0.5 0.5
0.5 0.5 0.5 0.5 0.5 0.5 0.5 0.5
0.5 0.5 0.5 0.5 0.5 0.5 0.5 0.5
0.5 0.5 0.5 0.5 0.5 0.5 0.5 0.5
0.5 0.5 0.5 0.5 0.5 0.5 0.5 0.5
0.5 0.5 0.5 0.5 0.5 0.5 0.5 0.5
00000000: 0000 003f 0000 003f 0000 003f 0000 003f
00000010: 0000 003f 0000 003f 0000 003f 0000 003f
00000020: 0000 003f 0000 003f 0000 003f 0000 003f
00000030: 0000 003f 0000 003f 0000 003f 0000 003f
00000040: 0000 003f 0000 003f 0000 003f 0000 003f
00000050: 0000 003f 0000 003f 0000 003f 0000 003f
00000060: 0000 003f 0000 003f 0000 003f 0000 003f
00000070: 0000 003f 0000 003f 0000 003f 0000 003f
00000080: 0000 003f 0000 003f 0000 003f 0000 003f
00000090: 0000 003f 0000 003f 0000 003f 0000 003f
000000a0: 0000 003f 0000 003f 0000 003f 0000 003f
000000b0: 0000 003f 0000 003f 0000 003f 0000 003f
000000c0: 0000 003f 0000 003f 0000 003f 0000 003f
000000d0: 0000 003f 0000 003f 0000 003f 0000 003f
000000e0: 0000 003f 0000 003f 0000 003f 0000 003f
000000f0: 0000 003f 0000 003f 0000 003f 0000 003f
00000100: 0000 003f 0000 003f 0000 003f 0000 003f
00000110: 0000 003f 0000 003f 0000 003f 0000 003f
00000120: 0000 003f 0000 003f 0000 003f 0000 003f
00000130: 0000 003f 0000 003f 0000 003f 0000 003f
00000140: 0000 003f 0000 003f 0000 003f 0000 003f
00000150: 0000 003f 0000 003f 0000 003f 0000 003f
00000160: 0000 003f 0000 003f 0000 003f 0000 003f
00000170: 0000 003f 0000 003f 0000 003f 0000 003f
00000180: 0000 003f 0000 003f 0000 003f 0000 003f
00000190: 0000 003f 0000 003f 0000 003f 0000 003f
000001a0: 0000 003f 0000 003f 0000 003f 0000 003f
000001b0: 0000 003f 0000 003f 0000 003f 0000 003f
000001c0: 0000 003f 0000 003f 0000 003f 0000 003f
000001d0: 0000 003f 0000 003f 0000 003f 0000 003f
000001e0: 0000 003f 0000 003f 0000 003f 0000 003f
000001f0: 0000 003f 0000 003f 0000 003f 0000 003f

layer2_1.membrane_decay f4 [128]
0.9 0.9 0.9 0.9 0.9 0.9 0.9 0.9
0.9 0.9 0.9 0.9 0.9 0.9 0.9 0.9
0.9 0.9 0.9 0.9 0.9 0.9 0.9 0.9
0.9 0.9 0.9 0.9 0.9 0.9 0.9 0.9
0.9 0.9 0.9 0.9 0.9 0.9 0.9 0.9
0.9 0.9 0.9 0.9 0.9 0.9 0.9 0.9
0.9 0.9 0.9 0.9 0.9 0.9 0.9 0.9
0.9 0.9 0.9 0.9 0.9 0.9 0.9 0.9
0.9 0.9 0.9 0.9 0.9 0.9 0.9 0.9
0.9 0.9 0.9 0.9 0.9 0.9 0.9 0.9
0.9 0.9 0.9 0.9 0.9 0.9 0.9 0.9
0.9 0.9 0.9 0.9 0.9 0.9 0.9 0.9
0.9 0.9 0.9 0.9 0.9 0.9 0.9 0.9
0.9 0.9 0.9 0.9 0.9 0.9 0.9 0.9
0.9 0.9 0.9 0.9 0.9 0.9 0.9 0.9
0.9 0.9 0.9 0.9 0.9 0.9 0.9 0.9
00000000: 6666 663f 6666 663f 6666 663f 6666 663f
00000010: 6666 663f 6666 663f 6666 663f 6666 663f
00000020: 6666 663f 6666 663f 6666 663f 6666 663f
00000030: 6666 663f 6666 663f 6666 663f 6666 663f
00000040: 6666 663f 6666 663f 6666 663f 6666 663f
00000050: 6666 663f 6666 663f 6666 663f 6666 663f
00000060: 6666 663f 6666 663f 6666 663f 6666 663f
00000070: 6666 663f 6666 663f 6666 663f 6666 663f
00000080: 6666 663f 6666 663f 6666 663f 6666 663f
00000090: 6666 663f 6666 663f 6666 663f 6666 663f
000000a0: 6666 663f 6666 663f 6666 663f 6666 663f
000000b0: 6666 663f 6666 663f 6666 663f 6666 663f
000000c0: 6666 663f 6666 663f 6666 663f 6666 663f
000000d0: 6666 663f 6666 663f 6666 663f 6666 663f
000000e0: 6666 663f 6666 663f 6666 663f 6666 663f
000000f0: 6666 663f 6666 663f 6666 663f 6666 663f
00000100: 6666 663f 6666 663f 6666 663f 6666 663f
00000110: 6666 663f 6666 663f 6666 663f 6666 663f
00000120: 6666 663f 6666 663f 6666 663f 6666 663f
00000130: 6666 663f 6666 663f 6666 663f 6666 663f
00000140: 6666 663f 6666 663f 6666 663f 6666 663f
00000150: 6666 663f 6666 663f 6666 663f 6666 663f
00000160: 6666 663f 6666 663f 6666 663f 6666 663f
00000170: 6666 663f 6666 663f 6666 663f 6666 663f
00000180: 6666 663f 6666 663f 6666 663f 6666 663f
00000190: 6666 663f 6666 663f 6666 663f 6666 663f
000001a0: 6666 663f 6666 663f 6666 663f 6666 663f
000001b0: 6666 663f 6666 663f 6666 663f 6666 663f
000001c0: 6666 663f 6666 663f 6666 663f 6666 663f
000001d0: 6666 663f 6666 663f 6666 663f 6666 663f
000001e0: 6666 663f 6666 663f 6666 663f 6666 663f
000001f0: 6666 663f 6666 663f 6666 663f 6666 663f

layer2_2.weights f4 [1, 128]
-0.069447726 0.064298786 -0.13504392 -0.009903958 -0.036634978 0.10622722 0.2483855 -0.009591421
0.14651799 0.0675168 -0.14354673 -0.15771648 0.027656754 0.052793343 -0.02655424 -0.18229611
-0.0036699919 -0.03591467 -0.098807275 0.23932774 0.03912857 0.123083346 -0.091851816 -0.008974954
-0.005501633 -0.11607601 -0.0066500315 -0.09557028 -0.16536675 0.06979389 0.016069455 0.05230332
0.0064668762 -0.0527389 0.11387451 0.15966246 0.1420997 0.037210435 -0.015845984 0.058233272
-0.11366425 -0.11398905 -0.059301537 0.08581251 0.13059461 0.116484836 -0.08505633 -0.048910588
0.0011930118 0.023476994 -0.021075116 -0.037941527 -0.17155445 0.02742627 0.12843673 -0.10011603
-0.11095563 0.03390781 -0.12994437 -0.0033159833 -0.06928572 0.04371953 -0.022502946 0.06374596
-0.06380427 -0.079614125 -0.089237176 0.24720757 -0.11917764 -0.11461838 -0.091640644 0.019522551
-0.024690097 -0.050836295 0.026409373 0.23686957 -0.16128127 0.028531333 -0.26760158 -0.11561304
-0.012510772 0.035232767 0.114049695 -0.03775941 0.226889 0.020957377 0.065750025 -0.10910442
-0.19866554 -0.13722958 0.043424755 -0.07263539 0.13222836 -0.027274406 0.033571992 -0.06806975
0.073818676 0.09509722 0.14869112 -0.19298403 -0.07472446 -0.040509976 -0.10297169 -0.23274961
0.10959424 -0.030879503 -0.061829742 -0.001989142 -0.12976891 0.13011427 0.28485176 -0.13255946
-0.024177736 -0.01207852 -0.1163134 -0.084938094 -0.055194814 -0.05303794 -0.07204269 0.10979086
0.07687297 0.14053626 0.10642228 -0.15573944 -0.007160736 0.053394485 -0.07386344 0.109685816
00000000: 9c3a 8ebd 15af 833d f448 0abe 3644 22bc
00000010: 8f0e 16bd a88d d93d c558 7e3e 5625 1dbc
00000020: d008 163e 3f46 8a3d eafd 12be 6e80 21be
00000030: 6b90 e23c d53d 583d 4788 d9bc d5ab 3abe
00000040: 3f84 70bb 431b 13bd 785b cabd 5512 753e
00000050: 4845 203d 1f13 fc3d ce1c bcbd af0b 13bc
00000060: 0b47 b4bb 42b9 edbd 82e8 d9bb 5aba c3bd
00000070: e755 29be 19f0 8e3d 17a4 833c 023c 563d
00000080: 17e8 d33b bf04 58bd 0a37 e93d 8e7e 233e
00000090: 9582 113e f869 183d 70cf 81bc 0386 6e3d
000000a0: cdc8 e8bd 1773 e9bd 2be6 72bd 78be af3d
000000b0: 98ba 053e 9a8f ee3d 0332 aebd 7856 48bd
000000c0: d55e 9c3a d352 c03c b9a5 acbc 9368 1bbd
000000d0: f8ab 2fbe 0fad e03c eb84 033e a209 cdbd
000000e0: b53c e3bd eae2 0a3d 2310 05be f850 59bb
000000f0: ace5 8dbd 4013 333d 1958 b8bc 3e8d 823d
00000100: d0ab 82bd bb0c a3bd fbc1 b6bd fb23 7d3e
00000110: 6813 f4bd 0bbd eabd 17ae bbbd c2ed 9f3c
00000120: e342 cabc b839 50bd 7858 d83c f08d 723e
00000130: eb26 25be 8bba e93c 1303 89be 88c6 ecbd
00000140: fbf9 4cbc 3c50 103d e392 e93d 9ca9 1abd
00000150: 9755 683e ceae ab3c f3a7 863d 2372 dfbd
00000160: fb6e 4bbe e985 0cbe 28de 313d ddc1 94bd
00000170: df66 073e 936e dfbc c982 093d 2768 8bbd
00000180: 3f2e 973d 55c2 c23d 7c42 183e 9b9d 45be
00000190: 2309 99bd caed 25bd d2e2 d2bd ea55 6ebe
000001a0: f272 e03d 03f7 fcbc 2f41 7dbd 445c 02bb
000001b0: 24e2 04be ad3c 053e 17d8 913e abbd 07be
000001c0: 6310 c6bc fce4 45bc b835 eebd 06f4 adbd
000001d0: f513 62bd 503e 59bd 1e8b 93bd 08da e03d
000001e0: 936f 9d3d bde8 0f3e edf3 d93d 297a 1fbe
000001f0: 9ba4 eabb 2db4 5a3d b745 97bd f5a2 e03d
