TD3/pytorch_models/NeuromorphicTD3_velodyne_actor.pth (torch, 18324 bytes, 8 tensors)

layer1.weights f4 [128, 24]
00000000: 6f92 e6bd dd00 ecbd 2346 cdbc 7eb7 31bd
00000010: ded0 ad3d 36b9 8d3d 5770 01bd 3599 58be
00000020: fa00 043d 905d 01be 665a 0f3d 5f6c fc3c
00000030: 2c59 443c eb78 fd3d 4ab7 e43d fd91 cabc
00000040: 0283 0abe d2a9 2dbe a019 683d b182 a23d
00000050: df48 753d e33d 1fbe 3bd2 0bbd 72bf 3d3e
00000060: 89a3 993d dfd1 6fbd ef0b 8ebc 1d4e 963c
00000070: 6745 0e3e cd70 223e 4acd c13d f6c8 acbd
00000080: da52 7bbd d30b 4f3b edcc 49bd 5a80 cb3c
00000090: 7319 343d ab2c 383c fa3b 833d 97b2 343d
000000a0: c79f 27bc e34a a23d b84b edbc 790e ac3b
000000b0: e529 563d efbe 6b3e 2c6a 16be 187a 22be
000000c0: 4cd9 89bd 7fc1 b23d 2023 d83d 88b0 913c
000000d0: dab0 bcbc 6d76 20bd 9588 5e3d 46db 21bd
000000e0: 43c5 36bd 1d60 983d 91bf 1b3e 249e ae3e
000000f0: 14cb 1cbe 38c0 fcbd 0257 3a3e fae7 61bd
00000100: fd29 69bd ff68 bc3d c27e e33d 4715 043e
00000110: 725d 17be 3c71 833e 35ca 41bd 0c71 093d
00000120: ced7 26be cd2c 61bd 458a 44bd 68ab 4cbd
00000130: 8084 dabd f256 e43d e079 66bc b204 a53d
00000140: 17f1 18bc 38b5 8c3d dfaf abbd 5107 bb38
00000150: 7f6b ac3d 9fda 23bd bfe1 d43d 13b3 123d
00000160: 2386 c9bc 17c7 6b3e 5baf 40be 0df2 a2bb
00000170: fa02 d6bd 31e4 c3bd 20c1 5b3b fd6c 913d
00000180: 6b89 283e 0348 0bbe 4e22 0d3d 15f0 543d
00000190: 57cd 85be 0fb8 2dbe c6f9 babc d256 e53c
000001a0: 3848 ca3c 7ff1 fb3b 7b72 0a3d 7b1f 3a3d
000001b0: a629 3b3d 623a b1bd 0a03 a03d 75ce bdbd
000001c0: c044 b3bc c759 79be 55ed eebb bbbb 5ebb
000001d0: ae1f c53d f204 0f3d 26b7 bcbd 9b23 b8bb
000001e0: ab0e 7fbd cbf0 3dbd 5fca 443e f6e1 24bd
000001f0: 7700 4b3c 338c ee3d 5e1b bd3d 1d0f 0e3e
00000200: 55ea b4bd 4396 2bbd 17d4 a4bd 78ac 673d
00000210: 5f01 7a3d 4a3c 3f3d 4fbf 473e fbb8 d9bd
00000220: 8b61 fdbb 22b5 3e3c 734c 73bd aac1 febd
00000230: c144 27bc b3ab d3bd 8f0e 00bd f358 c93c
00000240: c8b2 d4bc 28e2 413c f7d9 c73c 9d82 ee3d
00000250: cf66 ec3c b759 1e3d 29b6 a4bc 2a36 41bc
00000260: 1073 9d3c 4323 9ebd 6a98 42be 181a 563c
00000270: 4a3d 90bd e3e8 003d afef 803c 36d8 1d3d
00000280: 4a12 c63d 47f9 cabd 3f13 f73c fbd3 2fbc
00000290: e27b cc3d 0946 4cbd 22e0 9b3d 8b41 7d3d
000002a0: 61a2 003d 2cc3 ae3c f8b0 44bc f1a4 133d
000002b0: f5a0 00bd 5feb dcbd a045 c53c 43f9 0ebe
000002c0: a7bd d8bb 41c8 12bd 67e7 1fbe 0b43 11bd
000002d0: 5767 dd3d e569 573c 5d21 213e 6f09 a03d
000002e0: bfe8 dcbd 70a4 93bd f39b 163e dacc e13c
000002f0: 888e 883d a8a6 cbbd ed94 f3bd 32ee f4bd
00000300: 7839 65bd 9382 5a3d 27a9 263d 669f 213d
00000310: 7580 8c3c fa69 b33d 982e ebbc 5d3b d13d
00000320: fbc6 f3bb faaf dfbd f392 203d 9584 733d
00000330: 3ca2 873d fd0c f7bd abce 783d 8d1d 60bd
00000340: cad6 ef3d d8bc 1f3c 934c c53d 2319 ac3d
00000350: cf5f 00be a21a ca3d 579c 4abd 3462 03be
00000360: 23a1 c33d 3870 033e 4d5e 88bd 907a 673d
00000370: c7af eb3c 98b9 5abb 8a79 d9bd d179 3bbc
00000380: 5fa1 0cbd c4e5 203e 8ef8 9c3c cb9f 1b3d
00000390: 802b 6dbc 8a95 823d d76e e6bc e12d 08be
000003a0: a5ab 68bc 3fc9 5abd 4560 56bd a36f b03d
000003b0: 6ba6 b5bd f3c7 ab3d e81c ec3d 2256 34be
000003c0: 2452 17be dec7 33be c094 f93b e2e5 dcbd
000003d0: b57d 133e 9132 35bc 2f48 6c3d 6196 8abc
000003e0: f5cb d1bb 68ab d43d abb7 b93d 3ec5 42bd
000003f0: 0b54 b2bd 9225 6d3c 3eda 423e f7e7 1f3d
-0.11258399 -0.11523602 -0.025057858 -0.043387882 0.08487104 0.06920092 -0.031601276 -0.21152194
0.032227494 -0.12633348 0.03499832 0.030813394 0.011984151 0.12376579 0.11167772 -0.024727816
-0.13526538 -0.16959313 0.056665063 0.07935084 0.05988395 -0.15550952 -0.03413604 0.18530062
0.07501895 -0.058549758 -0.017339675 0.018347794 0.13893662 0.15863343 0.09462984 -0.08436768
-0.06135831 0.003159274 -0.049267698 0.024841476 0.043969583 0.011241118 0.06407924 0.04411563
-0.010230965 0.0792444 -0.02896677 0.0052507487 0.052286047 0.23022054 -0.14688939 -0.15866888
-0.06730899 0.08728313 0.105535746 0.017784372 -0.023033548 -0.03917544 0.054329474 -0.039515756
-0.044621717 0.07440207 0.15209796 0.34105027 -0.15311843 -0.1234135 0.18197253 -0.05515287
-0.05692481 0.09199714 0.111081615 0.12898742 -0.1478174 0.25672328 -0.04731198 0.033555076
-0.1629326 -0.054974366 -0.047983427 -0.049968153 -0.106698036 0.11149396 -0.014067143 0.08057536
-0.009334824 0.06870502 -0.08383154 8.918218e-05 0.08418941 -0.040003415 0.1039462 0.03581531
-0.024600094 0.23025165 -0.18816893 -0.0049727024 -0.104497865 -0.095650084 0.003353186 0.07100866
0.16458671 -0.13601689 0.034456544 0.051986773 -0.26133224 -0.16964744 -0.02282418 0.0279955
0.02469264 0.0076887007 0.033800583 0.04544018 0.045694016 -0.08653714 0.0781308 -0.09267894
-0.021883368 -0.24350654 -0.007291476 -0.0033986408 0.09625183 0.034916826 -0.0921462 -0.005619479
-0.062269848 -0.046372216 0.19217823 -0.040254556 0.012390248 0.11647835 0.092337355 0.13872953
-0.08833758 -0.041891348 -0.080482654 0.056560963 0.061036464 0.046688356 0.19506572 -0.10630985
-0.0077325753 0.011639865 -0.05939908 -0.12439282 -0.010209263 -0.103354834 -0.031263884 0.024578547
-0.025964156 0.011833705 0.024395926 0.11646006 0.028857617 0.038659777 -0.020106392 -0.011792699
0.019219905 -0.077215694 -0.19003454 0.013067745 -0.0704294 0.031472098 0.01573929 0.038536273
0.09671457 -0.09910827 0.030160544 -0.010731692 0.09984566 -0.04987148 0.07611109 0.061830085
0.031404857 0.0213333 -0.012005083 0.036045972 -0.0314035 -0.10787081 0.024081051 -0.13962273
-0.006614405 -0.03583551 -0.15615617 -0.035464328 0.10810726 0.013147806 0.15735383 0.07814299
-0.1078658 -0.07209098 0.14707927 0.027563501 0.06667811 -0.099438965 -0.1189364 -0.11959495
-0.05596301 0.05334718 0.04068866 0.039458655 0.017151097 0.08760448 -0.028708741 0.10216401
-0.007439492 -0.10922237 0.03920264 0.059452612 0.066227406 -0.12063024 0.06074397 -0.05471568
0.1171089 0.009749614 0.09633746 0.08403232 -0.12536548 0.09868361 -0.049465504 -0.1283043
0.09552219 0.12835777 -0.066586114 0.05651337 0.02877034 -0.0033374783 -0.10618885 -0.0114426175
-0.034333583 0.15712649 0.019161489 0.037994187 -0.014475703 0.063761786 -0.028129024 -0.13298751
-0.0142010795 -0.05341458 -0.052337904 0.08615043 -0.08869632 0.08387747 0.11528951 -0.17610982
-0.14777428 -0.17556712 0.0076166093 -0.10786034 0.14403422 -0.011059419 0.057686027 -0.01691741
-0.0064024874 0.10384256 0.09068235 -0.047551386 -0.08707436 0.0144742895 0.19028565 0.03903958

layer1.bias f4 [128]
00000000: 0000 0000 0000 0000 0000 0000 0000 0000
00000010: 0000 0000 0000 0000 0000 0000 0000 0000
00000020: 0000 0000 0000 0000 0000 0000 0000 0000
00000030: 0000 0000 0000 0000 0000 0000 0000 0000
00000040: 0000 0000 0000 0000 0000 0000 0000 0000
00000050: 0000 0000 0000 0000 0000 0000 0000 0000
00000060: 0000 0000 0000 0000 0000 0000 0000 0000
00000070: 0000 0000 0000 0000 0000 0000 0000 0000
00000080: 0000 0000 0000 0000 0000 0000 0000 0000
00000090: 0000 0000 0000 0000 0000 0000 0000 0000
000000a0: 0000 0000 0000 0000 0000 0000 0000 0000
000000b0: 0000 0000 0000 0000 0000 0000 0000 0000
000000c0: 0000 0000 0000 0000 0000 0000 0000 0000
000000d0: 0000 0000 0000 0000 0000 0000 0000 0000
000000e0: 0000 0000 0000 0000 0000 0000 0000 0000
000000f0: 0000 0000 0000 0000 0000 0000 0000 0000
00000100: 0000 0000 0000 0000 0000 0000 0000 0000
00000110: 0000 0000 0000 0000 0000 0000 0000 0000
00000120: 0000 0000 0000 0000 0000 0000 0000 0000
00000130: 0000 0000 0000 0000 0000 0000 0000 0000
00000140: 0000 0000 0000 0000 0000 0000 0000 0000
00000150: 0000 0000 0000 0000 0000 0000 0000 0000
00000160: 0000 0000 0000 0000 0000 0000 0000 0000
00000170: 0000 0000 0000 0000 0000 0000 0000 0000
00000180: 0000 0000 0000 0000 0000 0000 0000 0000
00000190: 0000 0000 0000 0000 0000 0000 0000 0000
000001a0: 0000 0000 0000 0000 0000 0000 0000 0000
000001b0: 0000 0000 0000 0000 0000 0000 0000 0000
000001c0: 0000 0000 0000 0000 0000 0000 0000 0000
000001d0: 0000 0000 0000 0000 0000 0000 0000 0000
000001e0: 0000 0000 0000 0000 0000 0000 0000 0000
000001f0: 0000 0000 0000 0000 0000 0000 0000 0000
0.0 0.0 0.0 0.0 0.0 0.0 0.0 0.0
0.0 0.0 0.0 0.0 0.0 0.0 0.0 0.0
0.0 0.0 0.0 0.0 0.0 0.0 0.0 0.0
0.0 0.0 0.0 0.0 0.0 0.0 0.0 0.0
0.0 0.0 0.0 0.0 0.0 0.0 0.0 0.0
0.0 0.0 0.0 0.0 0.0 0.0 0.0 0.0
0.0 0.0 0.0 0.0 0.0 0.0 0.0 0.0
0.0 0.0 0.0 0.0 0.0 0.0 0.0 0.0
0.0 0.0 0.0 0.0 0.0 0.0 0.0 0.0
0.0 0.0 0.0 0.0 0.0 0.0 0.0 0.0
0.0 0.0 0.0 0.0 0.0 0.0 0.0 0.0
0.0 0.0 0.0 0.0 0.0 0.0 0.0 0.0
0.0 0.0 0.0 0.0 0.0 0.0 0.0 0.0
0.0 0.0 0.0 0.0 0.0 0.0 0.0 0.0
0.0 0.0 0.0 0.0 0.0 0.0 0.0 0.0
0.0 0.0 0.0 0.0 0.0 0.0 0.0 0.0

layer1.spike_threshold f4 [128]
00000000: 0000 003f 0000 003f 0000 003f 0000 003f
00000010: 0000 003f 0000 003f 0000 003f 0000 003f
00000020: 0000 003f 0000 003f 0000 003f 0000 003f
00000030: 0000 003f 0000 003f 0000 003f 0000 003f
00000040: 0000 003f 0000 003f 0000 003f 0000 003f
00000050: 0000 003f 0000 003f 0000 003f 0000 003f
00000060: 0000 003f 0000 003f 0000 003f 0000 003f
00000070: 0000 003f 0000 003f 0000 003f 0000 003f
00000080: 0000 003f 0000 003f 0000 003f 0000 003f
00000090: 0000 003f 0000 003f 0000 003f 0000 003f
000000a0: 0000 003f 0000 003f 0000 003f 0000 003f
000000b0: 0000 003f 0000 003f 0000 003f 0000 003f
000000c0: 0000 003f 0000 003f 0000 003f 0000 003f
000000d0: 0000 003f 0000 003f 0000 003f 0000 003f
000000e0: 0000 003f 0000 003f 0000 003f 0000 003f
000000f0: 0000 003f 0000 003f 0000 003f 0000 003f
00000100: 0000 003f 0000 003f 0000 003f 0000 003f
00000110: 0000 003f 0000 003f 0000 003f 0000 003f
00000120: 0000 003f 0000 003f 0000 003f 0000 003f
00000130: 0000 003f 0000 003f 0000 003f 0000 003f
00000140: 0000 003f 0000 003f 0000 003f 0000 003f
00000150: 0000 003f 0000 003f 0000 003f 0000 003f
00000160: 0000 003f 0000 003f 0000 003f 0000 003f
00000170: 0000 003f 0000 003f 0000 003f 0000 003f
00000180: 0000 003f 0000 003f 0000 003f 0000 003f
00000190: 0000 003f 0000 003f 0000 003f 0000 003f
000001a0: 0000 003f 0000 003f 0000 003f 0000 003f
000001b0: 0000 003f 0000 003f 0000 003f 0000 003f
000001c0: 0000 003f 0000 003f 0000 003f 0000 003f
000001d0: 0000 003f 0000 003f 0000 003f 0000 003f
000001e0: 0000 003f 0000 003f 0000 003f 0000 003f
000001f0: 0000 003f 0000 003f 0000 003f 0000 003f
0.5 0.5 0.5 0.5 0.5 0.5 0.5 0.5
0.5 0.5 0.5 0.5 0.5 0.5 0.5 0.5
0.5 0.5 0.5 0.5 0.5 0.5 0.5 0.5
0.5 0.5 0.5 0.5 0.5 0.5 0.5 0.5
0.5 0.5 0.5 0.5 0.5 0.5 0.5 0.5
0.5 0.5 0.5 0.5 0.5 0.5 0.5 0.5
0.5 0.5 0.5 0.5 0.5 0.5 0.5 0.5
0.5 0.5 0.5 0.5 0.5 0.5 0.5 0.5
0.5 0.5 0.5 0.5 0.5 0.5 0.5 0.5
0.5 0.5 0.5 0.5 0.5 0.5 0.5 0.5
0.5 0.5 0.5 0.5 0.5 0.5 0.5 0.5
0.5 0.5 0.5 0.5 0.5 0.5 0.5 0.5
0.5 0.5 0.5 0.5 0.5 0.5 0.5 0.5
0.5 0.5 0.5 0.5 0.5 0.5 0.5 0.5
0.5 0.5 0.5 0.5 0.5 0.5 0.5 0.5
0.5 0.5 0.5 0.5 0.5 0.5 0.5 0.5

layer1.membrane_decay f4 [128]
00000000: 6666 663f 6666 663f 6666 663f 6666 663f
00000010: 6666 663f 6666 663f 6666 663f 6666 663f
00000020: 6666 663f 6666 663f 6666 663f 6666 663f
00000030: 6666 663f 6666 663f 6666 663f 6666 663f
00000040: 6666 663f 6666 663f 6666 663f 6666 663f
00000050: 6666 663f 6666 663f 6666 663f 6666 663f
00000060: 6666 663f 6666 663f 6666 663f 6666 663f
00000070: 6666 663f 6666 663f 6666 663f 6666 663f
00000080: 6666 663f 6666 663f 6666 663f 6666 663f
00000090: 6666 663f 6666 663f 6666 663f 6666 663f
000000a0: 6666 663f 6666 663f 6666 663f 6666 663f
000000b0: 6666 663f 6666 663f 6666 663f 6666 663f
000000c0: 6666 663f 6666 663f 6666 663f 6666 663f
000000d0: 6666 663f 6666 663f 6666 663f 6666 663f
000000e0: 6666 663f 6666 663f 6666 663f 6666 663f
000000f0: 6666 663f 6666 663f 6666 663f 6666 663f
00000100: 6666 663f 6666 663f 6666 663f 6666 663f
00000110: 6666 663f 6666 663f 6666 663f 6666 663f
00000120: 6666 663f 6666 663f 6666 663f 6666 663f
00000130: 6666 663f 6666 663f 6666 663f 6666 663f
00000140: 6666 663f 6666 663f 6666 663f 6666 663f
00000150: 6666 663f 6666 663f 6666 663f 6666 663f
00000160: 6666 663f 6666 663f 6666 663f 6666 663f
00000170: 6666 663f 6666 663f 6666 663f 6666 663f
00000180: 6666 663f 6666 663f 6666 663f 6666 663f
00000190: 6666 663f 6666 663f 6666 663f 6666 663f
000001a0: 6666 663f 6666 663f 6666 663f 6666 663f
000001b0: 6666 663f 6666 663f 6666 663f 6666 663f
000001c0: 6666 663f 6666 663f 6666 663f 6666 663f
000001d0: 6666 663f 6666 663f 6666 663f 6666 663f
000001e0: 6666 663f 6666 663f 6666 663f 6666 663f
000001f0: 6666 663f 6666 663f 6666 663f 6666 663f
0.9 0.9 0.9 0.9 0.9 0.9 0.9 0.9
0.9 0.9 0.9 0.9 0.9 0.9 0.9 0.9
0.9 0.9 0.9 0.9 0.9 0.9 0.9 0.9
0.9 0.9 0.9 0.9 0.9 0.9 0.9 0.9
0.9 0.9 0.9 0.9 0.9 0.9 0.9 0.9
0.9 0.9 0.9 0.9 0.9 0.9 0.9 0.9
0.9 0.9 0.9 0.9 0.9 0.9 0.9 0.9
0.9 0.9 0.9 0.9 0.9 0.9 0.9 0.9
0.9 0.9 0.9 0.9 0.9 0.9 0.9 0.9
0.9 0.9 0.9 0.9 0.9 0.9 0.9 0.9
0.9 0.9 0.9 0.9 0.9 0.9 0.9 0.9
0.9 0.9 0.9 0.9 0.9 0.9 0.9 0.9
0.9 0.9 0.9 0.9 0.9 0.9 0.9 0.9
0.9 0.9 0.9 0.9 0.9 0.9 0.9 0.9
0.9 0.9 0.9 0.9 0.9 0.9 0.9 0.9
0.9 0.9 0.9 0.9 0.9 0.9 0.9 0.9

layer2.weights f4 [2, 128]
00000000: addf 58be e854 ffbb 611c a2bc 2ba9 633d
00000010: bb18 22be 96e6 183c eac3 91bd 0c51 38bd
00000020: 4720 1cbe 7a82 52be a2a1 f5bc 3e11 84bd
00000030: 8ac0 803d 580c 8dbd a705 ebbd 8f71 8c3d
00000040: 874f 40bb f201 30be 8a11 f1bc a075 1d3e
00000050: 495c 333e 954b 9bbd 83be 19bd 53ef f3bd
00000060: ca8c 663d d9ae 3bbe f69e b43d ac28 0abe
00000070: 358d 633d 4c43 af3d d128 a6bc 37c1 16bd
00000080: 70cf 85bd b5ba b6bd 1a2e b7bc bd80 333d
00000090: cdf6 0bbe bfdf 24be 4c2b 853d ef1b ecbc
000000a0: 28f2 563e ff06 a6bc 5332 25bd 78d1 3b3e
000000b0: e099 2a3d d9fe c63d 3958 96bc cb31 7c3d
000000c0: 68d6 933e fb8f 72bd dc7c 9c3d 8ea5 34bd
000000d0: 5d59 3fbe cd6c 6d3d 9498 01be 3bbb b03d
000000e0: c585 4fbb ad40 e6bc ed49 093d 62e7 d8bc
000000f0: bfb8 99bd 3b5e c43b b32c bdbd d851 4dbc
00000100: 858c 65bd 2fce eb3d 78d6 c13c 106a 103e
00000110: 7492 9f3d 374d 9e3e b285 67be 7e1d b4bd
00000120: c77f 073e 1424 b73c 1efc c73d b39f 49bc
00000130: 4f6d a83c 52ff 343d 6759 553d 131a 0cbe
00000140: 8016 793b 0bbb bbbc 9e09 bdbc 0322 4abd
00000150: c329 22be 4ab2 20bc b79c d3bc 50e4 d9bb
00000160: 5258 bbbb a5dd 693c 106c ed3d c0d6 99bd
00000170: f548 e63d a4bd 12be b770 d8bc c5db fe3c
00000180: dd3e 06bd 69e8 25be c8f4 ddbc 83c2 dd3d
00000190: 388f 02be 1f1c 30bb c13d 963d 436b 25bd
000001a0: 0097 02bd ffc3 67bd dac6 79bd 3760 cf3b
000001b0: d3a7 bfbc cc23 8cbd 765b 1f3e 7aca 22bd
000001c0: d38c af3d 74be 133e 5136 c3bc 7697 aa3d
000001d0: c47e 3abd 524f 96bd 8e20 11be 9ba1 2f3c
000001e0: bd4d a6bd 479f 33be f420 c7bd 031a acbd
000001f0: e368 8a3d 05a9 82bd c328 bbbc 5fd7 7f3c
00000200: 078d 89bd ff6f 493c e232 ac3d b074 f43c
00000210: 6fb6 073d 3f55 70bd 9942 0abc 8d1c d3bc
00000220: 7083 5abd 4cf5 b2bd 9b96 47bd 87ca 84bc
00000230: c352 3c3d ccfc bd3d ba66 d63d 962b 89bc
00000240: 1a3f 053e ea3f 443d 7891 e8bd f715 a2bd
00000250: 4c55 913d 5667 b13b cd74 a3bd 2394 03be
00000260: 8298 663d 51ef 033e 0b61 0bbe 2eee 19be
00000270: 8f81 7abc ef0d 45be 0233 31be 3b72 623c
00000280: e132 44be 350b 773c 4d5f 93bc fef4 243d
00000290: ef2e 61bd 9b80 353e cfbc cf3d d0f4 4d3d
000002a0: 7de1 f93b 4380 b03d f09f 1ebe 20a0 88bd
000002b0: ef65 d3bd d305 943c 83f0 003e cbce aebd
000002c0: e344 b9bd c6fa 383e bc78 b43d f48f bcbd
000002d0: da34 18bc 43ea 46bc e7a0 8a3d 05f6 c63d
000002e0: 3375 603d 1b04 883c 3081 393e e3e7 803c
000002f0: de0a 8abd 0479 ae3c eedc 0c3e 0671 0c3e
00000300: bd6d 5abe 4416 0f3e 69f8 2b3d c341 4b3d
00000310: 41db 23bc 0db3 ebbd 763e 00bc d509 efbd
00000320: 43f4 ec3d ba5a 6c3d 5dd6 6e3c 98e7 2c3d
00000330: e21a 1d3d 909b 7abd 7a2c ab3d d20a 573c
00000340: 0f42 8f3b a741 2b3d 0c29 803d a6c4 863e
00000350: c071 47bd fd5b 05bd 4c8c 133e 0a44 a13c
00000360: 9a65 dcbd 888c 7d3e eb1c 4abd 4882 d7bc
00000370: a0a6 22bc 2fed d3bc d0d3 febc 9352 86bd
00000380: e736 08bd 78e6 c83d 3704 8a39 486b 4abe
00000390: 8d9c c83d 1748 e33d ef16 5bbd 9786 903d
000003a0: cd55 6bbc 9219 76bd 9a5f 013d 03ae 77bd
000003b0: 534b f6bc bcb2 19bd df7f 1a3d 52e2 66bc
000003c0: 928e ed3d 8722 723e ce5d 033d dffe 223d
000003d0: a748 8bbd 1f18 f6bd 273f dd3c e397 70bb
000003e0: 163e c7bd 3c48 a23d cf65 edbd 1a9e daba
000003f0: 9632 88bd c1d0 a53d e77c 2cbe b91f a23b
-0.21179076 -0.007792104 -0.019788923 0.055581253 -0.15829746 0.00933232 -0.07117446 -0.044999167
-0.15246688 -0.20557585 -0.0299843 -0.06448601 0.06286724 -0.0688712 -0.114756875 0.06857597
-0.0029344277 -0.17188242 -0.029427309 0.15376902 0.17515673 -0.075827755 -0.0375352 -0.11910882
0.05628661 -0.18328418 0.08819382 -0.13492078 0.055554587 0.08557758 -0.020283135 -0.036805358
-0.06533706 -0.0892233 -0.02236085 0.043823946 -0.13668366 -0.16100977 0.06502399 -0.028821914
0.20990813 -0.020267008 -0.040331196 0.18341625 0.041650653 0.09716577 -0.018352615 0.061570924
0.28874516 -0.05921934 0.076410025 -0.044103198 -0.18686433 0.05796509 -0.1265586 0.086294614
-0.0031665426 -0.028107012 0.033517767 -0.02647752 -0.07505941 0.0059926785 -0.09237041 -0.01253172
-0.056042213 0.11513936 0.023661837 0.1410296 0.077916056 0.30918285 -0.22609594 -0.08794688
0.13232337 0.02235607 0.097648844 -0.012306142 0.020559935 0.044188805 0.052087214 -0.13681822
0.0038007796 -0.022916337 -0.023075875 -0.049348842 -0.15836243 -0.009808132 -0.025831563 -0.0066495314
-0.0057173157 0.014274036 0.11592877 -0.075116634 0.11244384 -0.14330155 -0.026420934 0.031110654
-0.032774795 -0.16201939 -0.02709426 0.10828116 -0.12749946 -0.002687223 0.073359974 -0.040385496
-0.031882286 -0.0565834 -0.060980655 0.0063286084 -0.023395455 -0.06842765 0.15562233 -0.039743878
0.08571782 0.14428121 -0.023829611 0.0832967 -0.04553105 -0.07339348 -0.14172575 0.010719682
-0.08120296 -0.17541228 -0.09723082 -0.08403399 0.06758287 -0.06379894 -0.022846585 0.015615313
-0.06716352 0.012294768 0.084081426 0.029840797 0.033132967 -0.058675047 -0.00843873 -0.02577045
-0.053348005 -0.08738193 -0.048727613 -0.016209854 0.045977365 0.09276733 0.10468812 -0.016744416
0.13012353 0.047912516 -0.11355871 -0.07914346 0.07096347 0.00541393 -0.07981262 -0.12849478
0.056297787 0.1288426 -0.13611238 -0.15032265 -0.015289678 -0.19243596 -0.17304614 0.01382118
-0.19160034 0.015078356 -0.017989779 0.040272705 -0.0549764 0.1772484 0.10143434 0.0502823
0.0076257573 0.08618214 -0.15490699 -0.066711664 -0.10322177 0.018069183 0.12591748 -0.085355364
-0.09046342 0.18064412 0.08812091 -0.092071444 -0.009289945 -0.012140813 0.06768971 0.09714893
0.05479927 0.01660352 0.18115687 0.015735572 -0.06740354 0.02129794 0.13756153 0.1371499
-0.21330924 0.13973337 0.04198495 0.049623262 -0.010001005 -0.115087606 -0.007827392 -0.11671797
0.11570027 0.05770371 0.014577475 0.042213053 0.038355716 -0.061183512 0.083580926 0.013125138
0.0043718885 0.041810658 0.06257829 0.26321906 -0.048692465 -0.03255843 0.14408988 0.019685764
-0.107615665 0.2476064 -0.049343985 -0.02630724 -0.009927422 -0.025869934 -0.03110686 -0.065587185
-0.033255484 0.098095834 0.0002632455 -0.19767487 0.09795485 0.110977344 -0.053488668 0.07056921
-0.014363718 -0.06008298 0.031585313 -0.060468685 -0.030065214 -0.03752397 0.037719604 -0.014092045
0.11599459 0.23645984 0.03207188 0.039793845 -0.06800967 -0.120163195 0.027007652 -0.0036711625
-0.09728639 0.07923934 -0.11591684 -0.0016679198 -0.066502735 0.08096457 -0.16844521 0.0049476293

layer2.bias f4 [2]
00000000: 0000 0000 0000 0000
0.0 0.0

layer2.spike_threshold f4 [2]
00000000: 0000 003f 0000 003f
0.5 0.5

layer2.membrane_decay f4 [2]
00000000: 6666 663f 6666 663f
0.9 0.9
